train_alg/checkpoint.pt (torch, 10455 bytes, 5 tensors)

linear_proj.0.weight f4 [32, 46]
-0.010924977 -0.020414902 -0.0045693284 0.039483458 -0.015643492 -3.0075e-41 -1.6757e-41 2.1447e-41
3.7548e-41 -7.517e-42 0.0015513831 -0.030160032 -0.007287465 0.025832556 0.00068180653 0.041334327
0.015268411 -0.0064301 0.013246716 0.038849585 -0.01701186 0.009209109 -0.03810306 0.013644374
-0.025081662 -0.019112142 -0.025155203 -0.038662758 -0.006229933 0.0030550654 -0.023514932 0.0014447913
0.034589406 0.0048140404 -0.020862607 -0.0007224577 -0.032375325 0.0212328 -0.057737533 0.020586168
0.06638128 0.0014190583 -5.3368e-41 0.027353233 0.006944983 0.00161629 -0.006496659 0.016637368
0.0046612327 0.0019242336 -0.011413637 -1.14151e-40 1.32522e-40 5.1006e-41 1.439e-42 -4.1066e-41
-0.006406399 0.010546425 0.0056878794 -0.0018148487 -0.0067422604 0.035909735 0.024406454 0.0031420458
-0.00938842 0.03572926 -0.0274925 -0.014138005 -0.07491707 -0.008716993 0.016220832 0.016179075
0.008512571 -0.0058667636 0.018984599 0.02917362 -0.0032309515 0.021491924 0.007185573 0.0042551216
-0.015955353 0.0007011593 -0.022328272 -0.014656561 -0.07516205 -0.01671617 0.050639186 -0.020218452
5.3935e-41 -0.019313797 -0.003356828 -0.023473412 -0.02615082 -0.008221565 0.001620954 0.028659744
-0.035401065 -4.5388e-41 1.613e-41 3.81121e-40 -1.1550113e-36 6.964e-41 0.005085367 -0.012533341
0.0048057754 0.009296652 0.004735907 0.031335656 0.002689504 -4.8773116e-05 -0.010121034 0.029527217
-0.054662306 0.0067778374 -0.07648321 -0.010757567 -0.00018944606 0.006426801 -0.007150146 -0.014721699
0.000389867 0.018490432 -0.010784202 0.016621416 0.020062324 0.0033800607 -0.03210066 -0.0010845042
-0.033337016 -0.014043322 -0.040938284 0.0060284045 0.07790191 -0.03275329 -4.593e-42 -0.0011412355
-0.01816875 -0.012999291 1.1479511e-11 1.1441169e-11 7.227717e-12 -8.462051e-12 1.2149402e-11 2.3547e-41
5.2116e-41 -4.3652e-41 -5.6321e-41 -1.75262e-40 7.118439e-12 9.376408e-12 4.296922e-12 -5.2971178e-12
7.88267e-12 3.331428e-14 5.00534e-12 -9.983997e-12 -5.4339133e-12 3.6042675e-13 1.732183e-11 1.5140843e-11
1.4565939e-11 2.0610555e-11 1.0574538e-11 1.1948164e-11 9.469305e-12 1.176339e-11 5.876487e-12 7.141332e-12
8.435724e-12 8.814936e-12 -7.0396744e-12 -5.7871936e-12 -4.399639e-12 -5.165344e-12 9.195793e-12 7.971463e-12
1.5117019e-11 1.1794523e-11 -6.5871024e-12 -6.8177933e-12 -4.6994e-41 9.51178e-12 7.0727413e-12 2.4891048e-12
-0.0167912 -0.004561608 -0.012232953 0.020789994 -0.022073645 3.6491e-41 3.1469e-41 1.505e-42
-1.2897617e-37 5.9936e-41 0.013362755 -0.009673561 -0.017582694 0.011081275 0.019259036 0.04599015
0.011892223 -0.009058464 -0.02110331 0.043282714 -0.0097396355 0.0028438258 -0.08065664 0.0022423214
-0.012341692 -0.0014067411 -0.001957789 -0.018570747 -0.008504883 0.0047796695 -0.023281667 0.00039804168
0.021396747 -0.003604119 -0.028858263 -0.0071353535 -0.027349474 0.0035651564 -0.056150295 0.010853215
0.06173797 -0.020755189 -3.6514e-41 0.022668332 0.026756087 0.011767492 -0.026784845 -0.0030552177
0.00969674 0.018440051 -0.034011103 3.5159e-41 -1.4419e-40 1.1391e-41 4.3223e-41 -1.9701e-41
-0.008683605 -0.009642953 0.007555125 0.0033861587 -0.0088734375 0.03864616 -0.0005674895 -0.016520375
0.023856822 0.03369393 -0.05425034 0.016004004 -0.06811101 0.0058295685 -0.0059932866 0.014579603
00000000: adfe 32bc 273d a7bc 4eba 95bb 68b9 213d
00000010: c826 80bc d653 0080 b62e 0080 c93b 0000
00000020: ab68 0000 f414 0080 c757 cb3a 2c12 f7bc
00000030: b0cb eebb cc9e d33c 43bb 323a 2f4e 293d
00000040: 5b28 7a3c 97b3 d2bb c108 593c be20 1f3d
00000050: 755c 8bbc cde1 163c f411 1cbd a78c 5f3c
00000060: 0f78 cdbc 1191 9cbc 4912 cebc d75c 1ebd
00000070: 7724 ccbb 7e37 483b 63a2 c0bc 275f bd3a
00000080: 9fad 0d3d 19bf 9d3b 0fe8 aabc 5163 3dba
00000090: fd9b 04bd 69f0 ad3c 317e 6cbd 53a4 a83c
000000a0: e9f2 873d b2ff b93a c594 0080 e313 e03c
000000b0: bd92 e33b b1d9 d33a ede1 d4bb 174b 883c
000000c0: 41bd 983b 9136 fc3a 4300 3bbc 353e 0180
000000d0: 6b71 0100 2f8e 0000 0304 0000 7a72 0080
000000e0: c5ec d1bb eaca 2c3c 6461 ba3b 38e0 edba
000000f0: 2eee dcbb 1616 133d 0bf0 c73c c8ea 4d3b
00000100: e3d1 19bc d858 123d f437 e1bc 17a3 67bc
00000110: 1f6e 99bd b8d1 0ebc 8de1 843c fb89 843c
00000120: 5078 0b3c fb3d c0bb 9785 9b3c 84fd ee3c
00000130: 5fbe 53bb d50f b03c f574 eb3b 8c6e 8b3b
00000140: cdb4 82bc 01ce 373a c8e9 b6bc 1322 70bc
00000150: 90ee 99bd 59f0 88bc 096b 4f3d 2ba1 a5bc
00000160: 5996 0000 f837 9ebc 3afe 5bbb 504b c0bc
00000170: 3f3a d6bc beb3 06bc 3176 d43a d7c7 ea3c
00000180: b500 11bd 867e 0080 f72c 0000 6926 0400
00000190: d683 c483 21c2 0000 26a3 a63b a458 4dbc
000001a0: c479 9d3b fc50 183c ab2f 9b3b d159 003d
000001b0: 6442 303b bc91 4cb8 b2d2 25bc 10e3 f13c
000001c0: 95e5 5fbd 9f18 de3b 3ba3 9cbd 8240 30bc
000001d0: 0aa6 46b9 ea97 d23b c64b eabb 4833 71bc
000001e0: 1067 cc39 3f79 973c 39b0 30bc a329 883c
000001f0: be59 a43c 0284 5d3b fb7b 03bd ec25 8eba
00000200: 658c 08bd f615 66bc e7ae 27bd ec89 c53b
00000210: 098b 9f3d 5028 06bd ce0c 0080 8295 95ba
00000220: a1d6 94bc fafa 54bc 1ff3 492d 7246 492d
00000230: 7d4d fe2c b1dd 14ad 0bbc 552d a441 0000
00000240: 4791 0000 af79 0080 009d 0080 8fe8 0180
00000250: 3375 fa2c 96f3 242d 3c2f 972c 3260 baac
00000260: 64ac 0a2d c008 1629 181c b02c eda3 2fad
00000270: 5730 bfac f8e6 ca2a 4b5d 982d 262e 852d
00000280: 941f 802d d84a b52d 7c07 3a2d bf31 522d
00000290: f595 262d 99f1 4e2d b0c2 ce2c 6643 fb2c
000002a0: 2067 142d f112 1b2d c0af f7ac 689e cbac
000002b0: 6dcc 9aac 48bd b5ac 2cc6 212d 473c 0c2d
000002c0: 80f8 842d cf7d 4f2d 58c3 e7ac 39e1 efac
000002d0: 0083 0080 4055 272d 97d9 f82c ba27 2f2c
000002e0: b38d 89bc 8b79 95bb b96c 48bc c74f aa3c
000002f0: cad3 b4bc b965 0000 b957 0000 3204 0000
00000300: a38d 2f82 14a7 0000 75ef 5a3c db7d 1ebc
00000310: 9509 90bc 3c8e 353c 20c5 9d3c 2b60 3c3d
00000320: 99d7 423c f469 14bc d9e0 acbc 3749 313d
00000330: fe92 1fbc 7b5f 3a3b 4f2f a5bd e9f3 123b
00000340: cf34 4abc 6662 b8ba 404e 00bb ae21 98bc
00000350: 1158 0bbc c69e 9c3b 32b9 bebc 40b0 d039
00000360: 3b48 af3c 1533 6cbb 2a68 ecbc afcf e9bb
00000370: 010c e0bc 66a5 693b dafd 65bd afd1 313c
00000380: f4e0 7c3d c906 aabc c965 0080 f0b2 b93c
00000390: 952f db3c 70cc 403c e46b dbbc 0c3a 48bb
000003a0: 13df 1e3c 970f 973c 3a4f 0bbd 0262 0000
000003b0: f191 0180 c11f 0000 7d78 0000 eb36 0080
000003c0: ae45 0ebc 7afd 1dbc fb90 f73b 51ea 5d3b
000003d0: e561 11bc 704b 1e3d 93c3 14ba bd55 87bc
000003e0: 626f c33c a502 0a3d 9b35 5ebd d41a 833c
000003f0: c97d 8bbd f705 bf3b 5563 c4bb 4adf 6e3c

linear_proj.0.bias f4 [32]
0.13354222 0.14944486 0.15686794 -6.444375e-10 0.13552076 0.21997558 0.19747518 0.14002624
0.21079864 0.12676054 0.1841785 0.18556218 0.15651435 0.15430506 0.16373776 0.12722993
0.17336123 0.029731195 0.13675815 0.15221108 6.375836e-20 -0.035361115 -0.07081533 0.12376216
-0.040165365 0.1889616 0.15599595 0.015795898 0.23026036 0.086382486 0.07558068 0.19210565
00000000: 4bbf 083e 1308 193e fda1 203e 4224 31b0
00000010: f4c5 0a3e 4741 613e ef36 4a3e 0a63 0f3e
00000020: 99db 573e 84cd 013e 4a99 3c3e 0304 3e3e
00000030: 4c45 203e 2502 1e3e dfaa 273e 9048 023e
00000040: 9b85 313e d68e f33c 540a 0c3e 39dd 1b3e
00000050: 908b 961f d1d6 10bd a107 91bd 0477 fd3d
00000060: 7084 24bd 267f 413e 67bd 1f3e 6666 813c
00000070: 5fc9 6b3e 4de9 b03d 0bca 9a3d 58b7 443e

linear_proj.3.weight f4 [16, 32]
1.6627912e-10 -7.070399e-11 -9.830958e-11 4.9512863e-21 -5.818479e-11 -4.6536974e-10 -6.326365e-11 -1.6027707e-11
-2.8747353e-11 -1.6029764e-10 -9.393047e-11 -6.414804e-11 -6.799961e-11 -4.8951232e-11 -8.685877e-11 -1.2628304e-10
-1.1351654e-10 -4.611194e-12 -5.448933e-11 -3.344011e-11 -1.5212422e-28 1.0553559e-10 -8.225451e-12 -1.3772725e-10
6.9321576e-11 -1.00262174e-10 -5.9465585e-11 -3.0437645e-12 -1.4095841e-10 -7.656034e-11 -1.7172258e-12 -1.3232852e-10
0.072445534 0.051285923 0.07374016 -3.1359067e-12 0.08182148 0.065125376 0.07632433 0.05310109
0.09116991 0.08098431 0.06380893 0.06921141 0.06748944 0.08051917 0.06591419 0.06792285
0.06622853 0.006027346 0.080250606 0.043635633 3.8502556e-20 -0.02615104 -0.0761623 0.058749877
-0.0118718855 0.089887515 0.06214235 0.0060002278 0.10279445 0.01905024 0.02679152 0.09298663
-1.2179531e-07 -7.973075e-08 -7.312857e-08 5.947256e-18 -9.2264955e-08 -1.1987498e-07 -5.310079e-08 -7.234212e-08
-7.670978e-08 -6.671092e-08 -3.5806593e-08 -5.2746067e-08 -6.363789e-08 -9.7565675e-08 -8.917739e-08 -9.8552455e-08
-5.7400563e-08 -9.338272e-09 -5.670377e-08 -3.6253446e-08 -2.5548726e-26 1.1810126e-08 -5.401387e-09 -1.928415e-08
5.788117e-08 -6.3091726e-08 -8.717528e-08 -2.6757274e-09 -9.6748465e-08 -5.668061e-08 -1.0595645e-08 -6.626458e-08
-5.3293125e-09 -2.8074463e-09 -1.3070277e-09 2.4375958e-19 -3.1320748e-09 -6.935542e-09 -3.287936e-09 -2.1632407e-09
-4.967774e-09 -2.837046e-09 -3.848722e-09 -2.7675497e-09 -3.792389e-09 -4.2923483e-09 -4.134617e-09 -3.5886774e-09
-2.6115852e-09 -2.1401675e-10 -2.007533e-09 -1.5422181e-09 2.7461782e-28 1.967817e-10 2.0225908e-09 -5.1095776e-09
3.37361e-09 -1.7806266e-09 -3.6864145e-09 -1.8057254e-10 -2.2037057e-09 -4.175272e-09 -3.8086376e-10 9.652394e-10
-7.887596e-09 -5.1877924e-09 -6.9702444e-09 4.774762e-11 -1.7309124e-09 -1.2012406e-08 -6.7640404e-09 -8.006568e-09
-4.1384705e-09 -5.98796e-09 -1.9285695e-09 -1.1467523e-08 -4.831169e-09 1.4036095e-09 -1.1802836e-08 -4.6158832e-09
1.8752118e-09 9.585074e-10 -5.6500737e-09 -1.8918032e-09 -2.2733704e-27 7.941674e-09 -1.7858066e-09 -1.005768e-08
9.197425e-09 -4.0361714e-09 -8.319236e-09 -3.7019954e-10 -5.5497114e-09 2.7355598e-09 6.6975625e-09 -7.507648e-09
0.032540552 0.073747166 0.05707051 -8.005323e-12 0.0434185 0.10295248 0.063338436 0.047213964
0.072274774 0.060454674 0.07123444 0.06312373 0.072417594 0.048187606 0.04287803 0.06436356
0.064293645 0.0075635067 0.05435691 0.046948716 -2.9713145e-20 -0.021487856 -0.02396016 0.06206496
-0.03391869 0.08871867 0.06301693 0.0025712764 0.08622315 0.053719513 0.023642162 0.085274
0.07043931 0.06165229 0.07247591 -1.465412e-11 0.047347162 0.08655219 0.08344029 0.055509172
0.0708596 0.10206498 0.09710257 0.07422488 0.07509938 0.10560475 0.06760233 0.073995374
0.09053671 0.010581162 0.0823455 0.059597757 4.1407695e-20 0.027440403 -0.00043486973 0.07188805
-0.020786714 0.08105256 0.050946996 0.0032417607 0.09471839 0.054883223 0.031340595 0.10778425
0.10039792 0.06663313 0.075112365 -1.5334906e-09 0.10125235 0.12796323 0.09178434 0.06691982
0.096550286 0.06823147 0.05498819 0.07790817 0.07047767 0.08327741 0.08962221 0.053738862
0.06364109 0.00926032 0.070352614 0.057763662 4.639355e-20 -0.042213533 -0.066123836 0.031690225
-0.05594347 0.08765428 0.07671113 0.010319767 0.122610316 0.052567136 0.044928312 0.10122323
00000000: 69d3 362f cf7a 9bae 602f d8ae e70d bb1d
00000010: 40e6 7fae f8d6 ffaf 451e 8bae 30fb 8cad
00000020: 49dd fcad c63f 30af 278e ceae 2310 8dae
00000030: 6188 95ae 304a 57ae 2401 bfae 84d9 0aaf
00000040: 22a0 f9ae f13d a2ac 88a5 6fae 3712 13ae
00000050: 22d7 4091 4113 e82e 23b4 10ad c66e 17af
00000060: 9470 982e 967a dcae 26c4 82ae 962f 56ac
00000070: 44fc 1aaf a45b a8ae 94ad f1ab 2b7f 11af
00000080: 535e 943d 3011 523d 1505 973d 79ab 5cac
00000090: 0592 a73d 7460 853d ee4f 9c3d 8780 593d
000000a0: 4ab7 ba3d 1adb a53d 42ae 823d b6be 8d3d
000000b0: e737 8a3d 3ce7 a43d 05fe 863d 231b 8b3d
000000c0: d3a2 873d 0b81 c53b 6e5a a43d 47bb 323d
000000d0: bcd2 351f b53a d6bc fbfa 9bbd b6a3 703d
000000e0: 4c82 42bc f216 b83d fa88 7e3d 8f9d c43b
000000f0: e685 d23d 400f 9c3c e479 db3c c66f be3d
00000100: d7c6 02b4 7138 abb3 db0a 9db3 3f6a db22
00000110: 3223 c6b3 fcb6 00b4 f010 64b3 805a 9bb3
00000120: a6bb a4b3 b742 8fb3 c4c9 19b3 ea8a 62b3
00000130: 4da9 88b3 4c85 d1b3 ca81 bfb3 c9a3 d3b3
00000140: 9688 76b3 286e 20b2 748a 73b3 16b5 1bb3
00000150: b705 fd94 7ce5 4a32 1a97 b9b1 4ba6 a5b2
00000160: 0599 7833 0b7d 87b3 1e35 bbb3 e5df 37b1
00000170: 08c4 cfb3 fd70 73b3 2408 36b2 574d 8eb3
00000180: 211d b7b1 1eed 40b1 f3a2 b3b0 e8e3 8f20
00000190: 0b3c 57b1 ac4d eeb1 fbf1 61b1 22a8 14b1
000001a0: 01b1 aab1 d7f5 42b1 b73d 84b1 402f 3eb1
000001b0: 354e 82b1 e57b 93b1 7a10 8eb1 ae9c 76b1
000001c0: 7e77 33b1 5c50 6baf e5f4 09b1 faf5 d3b0
000001d0: 4a0f ae11 205d 582f cbfd 0a31 5290 afb1
000001e0: 2dd5 6731 3bba f4b0 1754 7db1 a78a 46af
000001f0: 0070 17b1 1576 8fb1 cf61 d1af 58a9 8430
00000200: 0482 07b2 4e40 b2b1 eb7e efb1 0aff 512e
00000210: 11e5 edb0 1f5f 4eb2 2169 e8b1 428d 09b2
00000220: 5f32 8eb1 a7be cdb1 c187 04b1 b302 45b2
00000230: 69ff a5b1 1ee9 c030 6cc5 4ab2 bd99 9eb1
00000240: 13dd 0031 7bbc 8330 9322 c2b1 f400 02b1
00000250: 6e1d 3493 da6f 0832 7c70 f5b0 25ca 2cb2
00000260: b402 1e32 8aae 8ab1 63ec 0eb2 f484 cbaf
00000270: c7af beb1 7afc 3b31 6220 e631 fcfa 00b2
00000280: 3e49 053d c108 973d c4c2 693d c5d4 0cad
00000290: 99d7 313d c0d8 d23d 95b7 813d 6e63 413d
000002a0: cc04 943d 529f 773d 5de3 913d 0447 813d
000002b0: ad4f 943d 5e60 453d e0a0 2f3d 0bd1 833d
000002c0: 63ac 833d 4bd7 f73b 5aa5 5e3d 4c4d 403d
000002d0: fd50 0c9f 4d07 b0bc 1948 c4bc d437 7e3d
000002e0: 53ee 0abd 22b2 b53d 050f 813d dc82 283b
000002f0: c395 b03d fe08 5c3d 35ad c13c 23a4 ae3d
00000300: 7c42 903d 1d87 7c3d 406e 943d 25e6 80ad
00000310: 19ef 413d 4642 b13d bee2 aa3d 965d 633d
00000320: d71e 913d 7207 d13d b6dd c63d 3703 983d
00000330: b4cd 993d 4e47 d83d 1773 8a3d e38a 973d
00000340: 506b b93d 9c5c 2d3c c2a4 a83d c71c 743d
00000350: d58a 431f b2ca e03c 3aff e3b9 0b3a 933d
00000360: e648 aabc e2fe a53d ccad 503d b873 543b
00000370: b7fb c13d 3bcd 603d ff5e 003d fdbd dc3d
00000380: 6d9d cd3d f376 883d 83d4 993d e7c2 d2b0
00000390: 645d cf3d cb08 033e 6ef9 bb3d 420d 893d
000003a0: 28bc c53d f1bc 8b3d 4c3b 613d 528e 9f3d
000003b0: 9956 903d 598d aa3d d98b b73d 481d 5c3d
000003c0: 4356 823d 99b8 173c 0815 903d 9799 6c3d
000003d0: 5c16 5b1f 19e8 2cbd ef6b 87bd 9ccd 013d
000003e0: fb24 65bd 1684 b33d ba1a 9d3d 3d14 293c
000003f0: 1e1b fb3d a350 573d c006 383d 204e cf3d

linear_proj.3.bias f4 [16]
-2.5965315e-08 0.19400284 -4.2095187e-05 -2.1818392e-05 -1.4763705e-05 0.20929284 0.2130664 0.22967353
0.113391526 -1.1716076e-09 -1.7758072e-08 0.2375074 0.1954168 -1.1975854e-19 0.17167197 0.19189577
00000000: 550a dfb2 aea8 463e 5d8f 30b8 a406 b7b7
00000010: a1b1 77b7 dd50 563e 142e 5a3e 8a2f 6b3e
00000020: d139 e83d 4706 a1b0 6a8a 98b2 2435 733e
00000030: 571b 483e cc62 0da0 c7ca 2f3e 5380 443e

linear_proj.6.weight f4 [1, 16]
1.0400804e-08 -0.31534475 9.693952e-06 6.396408e-07 1.5578669e-06 -0.29643476 -0.30357978 -0.33717203
-0.20725185 6.604897e-09 1.6815008e-09 -0.31665814 -0.31217062 1.5662316e-19 -0.31514248 -0.33776766
00000000: 38af 3232 de74 a1be 35a3 2237 c8b3 2b35
00000010: e617 d135 4cc6 97be cf6e 9bbe d0a1 acbe
00000020: d439 54be 4af1 e231 8d1a e730 0421 a2be
00000030: d4d4 9fbe 72e8 3820 5b5a a1be e2ef acbe
